(1220, 38, 38, 3)
(1220, 5)
1.0
0.0
[0.14344262295081966, 0.1762295081967213, 0.1762295081967213, 0.1762295081967213, 0.32786885245901637]
{0: 0.14344262295081966, 1: 0.1762295081967213, 2: 0.1762295081967213, 3: 0.1762295081967213, 4: 0.32786885245901637}
Model: "sequential"
_________________________________________________________________
Layer (type)                 Output Shape              Param #   
=================================================================
zero_padding2d (ZeroPadding2 (None, 40, 40, 3)         0         
_________________________________________________________________
conv2d (Conv2D)              (None, 38, 38, 64)        1792      
_________________________________________________________________
batch_normalization (BatchNo (None, 38, 38, 64)        256       
_________________________________________________________________
zero_padding2d_1 (ZeroPaddin (None, 40, 40, 64)        0         
_________________________________________________________________
conv2d_1 (Conv2D)            (None, 38, 38, 64)        36928     
_________________________________________________________________
max_pooling2d (MaxPooling2D) (None, 19, 19, 64)        0         
_________________________________________________________________
zero_padding2d_2 (ZeroPaddin (None, 21, 21, 64)        0         
_________________________________________________________________
conv2d_2 (Conv2D)            (None, 19, 19, 128)       73856     
_________________________________________________________________
batch_normalization_1 (Batch (None, 19, 19, 128)       512       
_________________________________________________________________
zero_padding2d_3 (ZeroPaddin (None, 21, 21, 128)       0         
_________________________________________________________________
conv2d_3 (Conv2D)            (None, 19, 19, 128)       147584    
_________________________________________________________________
batch_normalization_2 (Batch (None, 19, 19, 128)       512       
_________________________________________________________________
max_pooling2d_1 (MaxPooling2 (None, 9, 9, 128)         0         
_________________________________________________________________
zero_padding2d_4 (ZeroPaddin (None, 11, 11, 128)       0         
_________________________________________________________________
conv2d_4 (Conv2D)            (None, 9, 9, 256)         295168    
_________________________________________________________________
zero_padding2d_5 (ZeroPaddin (None, 11, 11, 256)       0         
_________________________________________________________________
conv2d_5 (Conv2D)            (None, 9, 9, 256)         590080    
_________________________________________________________________
zero_padding2d_6 (ZeroPaddin (None, 11, 11, 256)       0         
_________________________________________________________________
conv2d_6 (Conv2D)            (None, 9, 9, 256)         590080    
_________________________________________________________________
max_pooling2d_2 (MaxPooling2 (None, 4, 4, 256)         0         
_________________________________________________________________
zero_padding2d_7 (ZeroPaddin (None, 6, 6, 256)         0         
_________________________________________________________________
conv2d_7 (Conv2D)            (None, 4, 4, 512)         1180160   
_________________________________________________________________
zero_padding2d_8 (ZeroPaddin (None, 6, 6, 512)         0         
_________________________________________________________________
conv2d_8 (Conv2D)            (None, 4, 4, 512)         2359808   
_________________________________________________________________
zero_padding2d_9 (ZeroPaddin (None, 6, 6, 512)         0         
_________________________________________________________________
conv2d_9 (Conv2D)            (None, 4, 4, 512)         2359808   
_________________________________________________________________
max_pooling2d_3 (MaxPooling2 (None, 2, 2, 512)         0         
_________________________________________________________________
zero_padding2d_10 (ZeroPaddi (None, 4, 4, 512)         0         
_________________________________________________________________
conv2d_10 (Conv2D)           (None, 2, 2, 512)         2359808   
_________________________________________________________________
zero_padding2d_11 (ZeroPaddi (None, 4, 4, 512)         0         
_________________________________________________________________
conv2d_11 (Conv2D)           (None, 2, 2, 512)         2359808   
_________________________________________________________________
zero_padding2d_12 (ZeroPaddi (None, 4, 4, 512)         0         
_________________________________________________________________
conv2d_12 (Conv2D)           (None, 2, 2, 512)         2359808   
_________________________________________________________________
max_pooling2d_4 (MaxPooling2 (None, 1, 1, 512)         0         
_________________________________________________________________
flatten (Flatten)            (None, 512)               0         
_________________________________________________________________
dense (Dense)                (None, 4096)              2101248   
_________________________________________________________________
dropout (Dropout)            (None, 4096)              0         
_________________________________________________________________
dense_1 (Dense)              (None, 4096)              16781312  
_________________________________________________________________
dropout_1 (Dropout)          (None, 4096)              0         
_________________________________________________________________
dense_2 (Dense)              (None, 5)                 20485     
=================================================================
Total params: 33,619,013
Trainable params: 33,618,373
Non-trainable params: 640
_________________________________________________________________
None
Epoch 1/1000
 1/61 [..............................] - ETA: 4:12 - loss: 0.3311 - acc: 0.1875 2/6
…
